…
latgen-faster-mapped --min-active=200 --max-active=7000 --max-mem=50000000 --beam=18.0 --lattice-beam=10.0 --acoustic-scale=0.1 --allow-partial=true --word-symbol-table=exp/tri3b//graph//words.txt exp/djinn_decode/final.mdl exp/tri3b//graph//HCLG.fst ark:- 'ark:|gzip -c > exp/djinn_decode//decode_local/lat.1.gz' 
nnet-forward --djinn=false --hostname=localhost --portno=8080 --feature-transform=exp/djinn_decode/final.feature_transform --class-frame-counts=exp/djinn_decode/ali_train_pdf.counts --gpu=false --common=../../../../../common/ --network=asr.prototxt --weight=asr.caffemodel 'ark,s,cs:copy-feats scp:exp/data-fmllr-tri3b/local/split1/1/feats.scp ark:- |' ark:- 
WARNING: Logging before InitGoogleLogging() is written to STDERR
I0129 16:56:27.312840  9331 net.cpp:39] Initializing net from parameters: 
name: "asr"
layers {
  bottom: "data"
  top: "inner1"
  name: "inner1"
  type: INNER_PRODUCT
  inner_product_param {
    num_output: 2048
  }
}
layers {
  bottom: "inner1"
  top: "sig1"
  name: "sig1"
  type: SIGMOID
}
layers {
  bottom: "sig1"
  top: "inner2"
  name: "inner2"
  type: INNER_PRODUCT
  inner_product_param {
    num_output: 2048
  }
}
layers {
  bottom: "inner2"
  top: "sig2"
  name: "sig2"
  type: SIGMOID
}
layers {
  bottom: "sig2"
  top: "inner3"
  name: "inner3"
  type: INNER_PRODUCT
  inner_product_param {
    num_output: 2048
  }
}
layers {
  bottom: "inner3"
  top: "sig3"
  name: "sig3"
  type: SIGMOID
}
layers {
  bottom: "sig3"
  top: "inner4"
  name: "inner4"
  type: INNER_PRODUCT
  inner_product_param {
    num_output: 2048
  }
}
layers {
  bottom: "inner4"
  top: "sig4"
  name: "sig4"
  type: SIGMOID
}
layers {
  bottom: "sig4"
  top: "inner5"
  name: "inner5"
  type: INNER_PRODUCT
  inner_product_param {
    num_output: 2048
  }
}
layers {
  bottom: "inner5"
  top: "sig5"
  name: "sig5"
  type: SIGMOID
}
layers {
  bottom: "sig5"
  top: "inner6"
  name: "inner6"
  type: INNER_PRODUCT
  inner_product_param {
    num_output: 2048
  }
}
layers {
  bottom: "inner6"
  top: "sig6"
  name: "sig6"
  type: SIGMOID
}
layers {
  bottom: "sig6"
  top: "out"
  name: "final_inner"
  type: INNER_PRODUCT
  inner_product_param {
    num_output: 1706
  }
}
input: "data"
input_dim: 548
input_dim: 440
input_dim: 1
input_dim: 1
I0129 16:56:27.313037  9331 net.cpp:358] Input 0 -> data
I0129 16:56:27.313105  9331 net.cpp:67] Creating Layer inner1
I0129 16:56:27.313117  9331 net.cpp:394] inner1 <- data
I0129 16:56:27.313128  9331 net.cpp:356] inner1 -> inner1
I0129 16:56:27.313148  9331 net.cpp:96] Setting up inner1
I0129 16:56:27.315079  9331 net.cpp:103] Top shape: 548 2048 1 1 (1122304)
I0129 16:56:27.315116  9331 net.cpp:67] Creating Layer sig1
I0129 16:56:27.315124  9331 net.cpp:394] sig1 <- inner1
I0129 16:56:27.315131  9331 net.cpp:356] sig1 -> sig1
I0129 16:56:27.315140  9331 net.cpp:96] Setting up sig1
I0129 16:56:27.375689  9331 net.cpp:103] Top shape: 548 2048 1 1 (1122304)
I0129 16:56:27.375732  9331 net.cpp:67] Creating Layer inner2
I0129 16:56:27.375741  9331 net.cpp:394] inner2 <- sig1
I0129 16:56:27.375753  9331 net.cpp:356] inner2 -> inner2
I0129 16:56:27.375767  9331 net.cpp:96] Setting up inner2
I0129 16:56:27.383035  9331 net.cpp:103] Top shape: 548 2048 1 1 (1122304)
I0129 16:56:27.383067  9331 net.cpp:67] Creating Layer sig2
I0129 16:56:27.383074  9331 net.cpp:394] sig2 <- inner2
I0129 16:56:27.383083  9331 net.cpp:356] sig2 -> sig2
I0129 16:56:27.383105  9331 net.cpp:96] Setting up sig2
I0129 16:56:27.383121  9331 net.cpp:103] Top shape: 548 2048 1 1 (1122304)
I0129 16:56:27.383131  9331 net.cpp:67] Creating Layer inner3
I0129 16:56:27.383136  9331 net.cpp:394] inner3 <- sig2
I0129 16:56:27.383143  9331 net.cpp:356] inner3 -> inner3
I0129 16:56:27.383152  9331 net.cpp:96] Setting up inner3
I0129 16:56:27.390753  9331 net.cpp:103] Top shape: 548 2048 1 1 (1122304)
I0129 16:56:27.390786  9331 net.cpp:67] Creating Layer sig3
I0129 16:56:27.390794  9331 net.cpp:394] sig3 <- inner3
I0129 16:56:27.390801  9331 net.cpp:356] sig3 -> sig3
I0129 16:56:27.390810  9331 net.cpp:96] Setting up sig3
I0129 16:56:27.390821  9331 net.cpp:103] Top shape: 548 2048 1 1 (1122304)
I0129 16:56:27.390828  9331 net.cpp:67] Creating Layer inner4
I0129 16:56:27.390833  9331 net.cpp:394] inner4 <- sig3
I0129 16:56:27.390841  9331 net.cpp:356] inner4 -> inner4
I0129 16:56:27.390848  9331 net.cpp:96] Setting up inner4
I0129 16:56:27.398468  9331 net.cpp:103] Top shape: 548 2048 1 1 (1122304)
I0129 16:56:27.398489  9331 net.cpp:67] Creating Layer sig4
I0129 16:56:27.398495  9331 net.cpp:394] sig4 <- inner4
I0129 16:56:27.398504  9331 net.cpp:356] sig4 -> sig4
I0129 16:56:27.398514  9331 net.cpp:96] Setting up sig4
I0129 16:56:27.398526  9331 net.cpp:103] Top shape: 548 2048 1 1 (1122304)
I0129 16:56:27.398536  9331 net.cpp:67] Creating Layer inner5
I0129 16:56:27.398541  9331 net.cpp:394] inner5 <- sig4
I0129 16:56:27.398550  9331 net.cpp:356] inner5 -> inner5
I0129 16:56:27.398557  9331 net.cpp:96] Setting up inner5
I0129 16:56:27.405808  9331 net.cpp:103] Top shape: 548 2048 1 1 (1122304)
I0129 16:56:27.405838  9331 net.cpp:67] Creating Layer sig5
I0129 16:56:27.405843  9331 net.cpp:394] sig5 <- inner5
I0129 16:56:27.405851  9331 net.cpp:356] sig5 -> sig5
I0129 16:56:27.405859  9331 net.cpp:96] Setting up sig5
I0129 16:56:27.405869  9331 net.cpp:103] Top shape: 548 2048 1 1 (1122304)
I0129 16:56:27.405876  9331 net.cpp:67] Creating Layer inner6
I0129 16:56:27.405881  9331 net.cpp:394] inner6 <- sig5
I0129 16:56:27.405889  9331 net.cpp:356] inner6 -> inner6
I0129 16:56:27.405896  9331 net.cpp:96] Setting up inner6
I0129 16:56:27.413502  9331 net.cpp:103] Top shape: 548 2048 1 1 (1122304)
I0129 16:56:27.413524  9331 net.cpp:67] Creating Layer sig6
I0129 16:56:27.413530  9331 net.cpp:394] sig6 <- inner6
I0129 16:56:27.413538  9331 net.cpp:356] sig6 -> sig6
I0129 16:56:27.413547  9331 net.cpp:96] Setting up sig6
I0129 16:56:27.413556  9331 net.cpp:103] Top shape: 548 2048 1 1 (1122304)
I0129 16:56:27.413563  9331 net.cpp:67] Creating Layer final_inner
I0129 16:56:27.413569  9331 net.cpp:394] final_inner <- sig6
I0129 16:56:27.413576  9331 net.cpp:356] final_inner -> out
I0129 16:56:27.413584  9331 net.cpp:96] Setting up final_inner
I0129 16:56:27.420274  9331 net.cpp:103] Top shape: 548 1706 1 1 (934888)
I0129 16:56:27.420290  9331 net.cpp:172] final_inner does not need backward computation.
I0129 16:56:27.420296  9331 net.cpp:172] sig6 does not need backward computation.
I0129 16:56:27.420300  9331 net.cpp:172] inner6 does not need backward computation.
I0129 16:56:27.420305  9331 net.cpp:172] sig5 does not need backward computation.
I0129 16:56:27.420310  9331 net.cpp:172] inner5 does not need backward computation.
…
