…
latgen-faster-mapped --min-active=200 --max-active=7000 --max-mem=50000000 --beam=18.0 --lattice-beam=10.0 --acoustic-scale=0.1 --allow-partial=true --word-symbol-table=exp/tri3b//graph//words.txt exp/djinn_decode/final.mdl exp/tri3b//graph//HCLG.fst ark:- 'ark:|gzip -c > exp/djinn_decode//decode_local/lat.1.gz' 
nnet-forward --djinn=false --hostname=localhost --portno=8080 --feature-transform=exp/djinn_decode/final.feature_transform --class-frame-counts=exp/djinn_decode/ali_train_pdf.counts --gpu=false --common=../../../../../common/ --network=asr.prototxt --weight=asr.caffemodel 'ark,s,cs:copy-feats scp:exp/data-fmllr-tri3b/local/split1/1/feats.scp ark:- |' ark:- 
WARNING: Logging before InitGoogleLogging() is written to STDERR
I0129 16:57:54.846683 13324 net.cpp:39] Initializing net from parameters: 
name: "asr"
layers {
  bottom: "data"
  top: "inner1"
  name: "inner1"
  type: INNER_PRODUCT
  inner_product_param {
    num_output: 2048
  }
}
layers {
  bottom: "inner1"
  top: "sig1"
  name: "sig1"
  type: SIGMOID
}
layers {
  bottom: "sig1"
  top: "inner2"
  name: "inner2"
  type: INNER_PRODUCT
  inner_product_param {
    num_output: 2048
  }
}
layers {
  bottom: "inner2"
  top: "sig2"
  name: "sig2"
  type: SIGMOID
}
layers {
  bottom: "sig2"
  top: "inner3"
  name: "inner3"
  type: INNER_PRODUCT
  inner_product_param {
    num_output: 2048
  }
}
layers {
  bottom: "inner3"
  top: "sig3"
  name: "sig3"
  type: SIGMOID
}
layers {
  bottom: "sig3"
  top: "inner4"
  name: "inner4"
  type: INNER_PRODUCT
  inner_product_param {
    num_output: 2048
  }
}
layers {
  bottom: "inner4"
  top: "sig4"
  name: "sig4"
  type: SIGMOID
}
layers {
  bottom: "sig4"
  top: "inner5"
  name: "inner5"
  type: INNER_PRODUCT
  inner_product_param {
    num_output: 2048
  }
}
layers {
  bottom: "inner5"
  top: "sig5"
  name: "sig5"
  type: SIGMOID
}
layers {
  bottom: "sig5"
  top: "inner6"
  name: "inner6"
  type: INNER_PRODUCT
  inner_product_param {
    num_output: 2048
  }
}
layers {
  bottom: "inner6"
  top: "sig6"
  name: "sig6"
  type: SIGMOID
}
layers {
  bottom: "sig6"
  top: "out"
  name: "final_inner"
  type: INNER_PRODUCT
  inner_product_param {
    num_output: 1706
  }
}
input: "data"
input_dim: 548
input_dim: 440
input_dim: 1
input_dim: 1
I0129 16:57:54.846895 13324 net.cpp:358] Input 0 -> data
I0129 16:57:54.846976 13324 net.cpp:67] Creating Layer inner1
I0129 16:57:54.846989 13324 net.cpp:394] inner1 <- data
I0129 16:57:54.847002 13324 net.cpp:356] inner1 -> inner1
I0129 16:57:54.847024 13324 net.cpp:96] Setting up inner1
I0129 16:57:54.848915 13324 net.cpp:103] Top shape: 548 2048 1 1 (1122304)
I0129 16:57:54.848951 13324 net.cpp:67] Creating Layer sig1
I0129 16:57:54.848958 13324 net.cpp:394] sig1 <- inner1
I0129 16:57:54.848965 13324 net.cpp:356] sig1 -> sig1
I0129 16:57:54.848974 13324 net.cpp:96] Setting up sig1
I0129 16:57:54.908881 13324 net.cpp:103] Top shape: 548 2048 1 1 (1122304)
I0129 16:57:54.908936 13324 net.cpp:67] Creating Layer inner2
I0129 16:57:54.908946 13324 net.cpp:394] inner2 <- sig1
I0129 16:57:54.908960 13324 net.cpp:356] inner2 -> inner2
I0129 16:57:54.908974 13324 net.cpp:96] Setting up inner2
I0129 16:57:54.916613 13324 net.cpp:103] Top shape: 548 2048 1 1 (1122304)
I0129 16:57:54.916661 13324 net.cpp:67] Creating Layer sig2
I0129 16:57:54.916667 13324 net.cpp:394] sig2 <- inner2
I0129 16:57:54.916677 13324 net.cpp:356] sig2 -> sig2
I0129 16:57:54.916700 13324 net.cpp:96] Setting up sig2
I0129 16:57:54.916719 13324 net.cpp:103] Top shape: 548 2048 1 1 (1122304)
I0129 16:57:54.916729 13324 net.cpp:67] Creating Layer inner3
I0129 16:57:54.916735 13324 net.cpp:394] inner3 <- sig2
I0129 16:57:54.916741 13324 net.cpp:356] inner3 -> inner3
I0129 16:57:54.916749 13324 net.cpp:96] Setting up inner3
I0129 16:57:54.924371 13324 net.cpp:103] Top shape: 548 2048 1 1 (1122304)
I0129 16:57:54.924410 13324 net.cpp:67] Creating Layer sig3
I0129 16:57:54.924417 13324 net.cpp:394] sig3 <- inner3
I0129 16:57:54.924425 13324 net.cpp:356] sig3 -> sig3
I0129 16:57:54.924435 13324 net.cpp:96] Setting up sig3
I0129 16:57:54.924449 13324 net.cpp:103] Top shape: 548 2048 1 1 (1122304)
I0129 16:57:54.924456 13324 net.cpp:67] Creating Layer inner4
I0129 16:57:54.924461 13324 net.cpp:394] inner4 <- sig3
I0129 16:57:54.924468 13324 net.cpp:356] inner4 -> inner4
I0129 16:57:54.924475 13324 net.cpp:96] Setting up inner4
I0129 16:57:54.931716 13324 net.cpp:103] Top shape: 548 2048 1 1 (1122304)
I0129 16:57:54.931738 13324 net.cpp:67] Creating Layer sig4
I0129 16:57:54.931744 13324 net.cpp:394] sig4 <- inner4
I0129 16:57:54.931754 13324 net.cpp:356] sig4 -> sig4
I0129 16:57:54.931767 13324 net.cpp:96] Setting up sig4
I0129 16:57:54.931780 13324 net.cpp:103] Top shape: 548 2048 1 1 (1122304)
I0129 16:57:54.931792 13324 net.cpp:67] Creating Layer inner5
I0129 16:57:54.931797 13324 net.cpp:394] inner5 <- sig4
I0129 16:57:54.931803 13324 net.cpp:356] inner5 -> inner5
I0129 16:57:54.931812 13324 net.cpp:96] Setting up inner5
I0129 16:57:54.939455 13324 net.cpp:103] Top shape: 548 2048 1 1 (1122304)
I0129 16:57:54.939489 13324 net.cpp:67] Creating Layer sig5
I0129 16:57:54.939496 13324 net.cpp:394] sig5 <- inner5
I0129 16:57:54.939503 13324 net.cpp:356] sig5 -> sig5
I0129 16:57:54.939512 13324 net.cpp:96] Setting up sig5
I0129 16:57:54.939527 13324 net.cpp:103] Top shape: 548 2048 1 1 (1122304)
I0129 16:57:54.939533 13324 net.cpp:67] Creating Layer inner6
I0129 16:57:54.939538 13324 net.cpp:394] inner6 <- sig5
I0129 16:57:54.939545 13324 net.cpp:356] inner6 -> inner6
I0129 16:57:54.939553 13324 net.cpp:96] Setting up inner6
I0129 16:57:54.947192 13324 net.cpp:103] Top shape: 548 2048 1 1 (1122304)
I0129 16:57:54.947217 13324 net.cpp:67] Creating Layer sig6
I0129 16:57:54.947223 13324 net.cpp:394] sig6 <- inner6
I0129 16:57:54.947233 13324 net.cpp:356] sig6 -> sig6
I0129 16:57:54.947242 13324 net.cpp:96] Setting up sig6
I0129 16:57:54.947254 13324 net.cpp:103] Top shape: 548 2048 1 1 (1122304)
I0129 16:57:54.947263 13324 net.cpp:67] Creating Layer final_inner
I0129 16:57:54.947268 13324 net.cpp:394] final_inner <- sig6
I0129 16:57:54.947275 13324 net.cpp:356] final_inner -> out
I0129 16:57:54.947283 13324 net.cpp:96] Setting up final_inner
I0129 16:57:54.953970 13324 net.cpp:103] Top shape: 548 1706 1 1 (934888)
I0129 16:57:54.953990 13324 net.cpp:172] final_inner does not need backward computation.
I0129 16:57:54.953996 13324 net.cpp:172] sig6 does not need backward computation.
I0129 16:57:54.954001 13324 net.cpp:172] inner6 does not need backward computation.
I0129 16:57:54.954005 13324 net.cpp:172] sig5 does not need backward computation.
I0129 16:57:54.954010 13324 net.cpp:172] inner5 does not need backward computation.
…
