…
latgen-faster-mapped --min-active=200 --max-active=7000 --max-mem=50000000 --beam=18.0 --lattice-beam=10.0 --acoustic-scale=0.1 --allow-partial=true --word-symbol-table=exp/tri3b//graph//words.txt exp/djinn_decode/final.mdl exp/tri3b//graph//HCLG.fst ark:- 'ark:|gzip -c > exp/djinn_decode//decode_local/lat.1.gz' 
nnet-forward --djinn=false --hostname=localhost --portno=8080 --feature-transform=exp/djinn_decode/final.feature_transform --class-frame-counts=exp/djinn_decode/ali_train_pdf.counts --gpu=false --common=../../../../../common/ --network=asr.prototxt --weight=asr.caffemodel 'ark,s,cs:copy-feats scp:exp/data-fmllr-tri3b/local/split1/1/feats.scp ark:- |' ark:- 
WARNING: Logging before InitGoogleLogging() is written to STDERR
I0129 17:01:27.171303 17373 net.cpp:39] Initializing net from parameters: 
name: "asr"
layers {
  bottom: "data"
  top: "inner1"
  name: "inner1"
  type: INNER_PRODUCT
  inner_product_param {
    num_output: 2048
  }
}
layers {
  bottom: "inner1"
  top: "sig1"
  name: "sig1"
  type: SIGMOID
}
layers {
  bottom: "sig1"
  top: "inner2"
  name: "inner2"
  type: INNER_PRODUCT
  inner_product_param {
    num_output: 2048
  }
}
layers {
  bottom: "inner2"
  top: "sig2"
  name: "sig2"
  type: SIGMOID
}
layers {
  bottom: "sig2"
  top: "inner3"
  name: "inner3"
  type: INNER_PRODUCT
  inner_product_param {
    num_output: 2048
  }
}
layers {
  bottom: "inner3"
  top: "sig3"
  name: "sig3"
  type: SIGMOID
}
layers {
  bottom: "sig3"
  top: "inner4"
  name: "inner4"
  type: INNER_PRODUCT
  inner_product_param {
    num_output: 2048
  }
}
layers {
  bottom: "inner4"
  top: "sig4"
  name: "sig4"
  type: SIGMOID
}
layers {
  bottom: "sig4"
  top: "inner5"
  name: "inner5"
  type: INNER_PRODUCT
  inner_product_param {
    num_output: 2048
  }
}
layers {
  bottom: "inner5"
  top: "sig5"
  name: "sig5"
  type: SIGMOID
}
layers {
  bottom: "sig5"
  top: "inner6"
  name: "inner6"
  type: INNER_PRODUCT
  inner_product_param {
    num_output: 2048
  }
}
layers {
  bottom: "inner6"
  top: "sig6"
  name: "sig6"
  type: SIGMOID
}
layers {
  bottom: "sig6"
  top: "out"
  name: "final_inner"
  type: INNER_PRODUCT
  inner_product_param {
    num_output: 1706
  }
}
input: "data"
input_dim: 548
input_dim: 440
input_dim: 1
input_dim: 1
I0129 17:01:27.171509 17373 net.cpp:358] Input 0 -> data
I0129 17:01:27.171581 17373 net.cpp:67] Creating Layer inner1
I0129 17:01:27.171591 17373 net.cpp:394] inner1 <- data
I0129 17:01:27.171604 17373 net.cpp:356] inner1 -> inner1
I0129 17:01:27.171627 17373 net.cpp:96] Setting up inner1
I0129 17:01:27.173558 17373 net.cpp:103] Top shape: 548 2048 1 1 (1122304)
I0129 17:01:27.173594 17373 net.cpp:67] Creating Layer sig1
I0129 17:01:27.173601 17373 net.cpp:394] sig1 <- inner1
I0129 17:01:27.173609 17373 net.cpp:356] sig1 -> sig1
I0129 17:01:27.173617 17373 net.cpp:96] Setting up sig1
I0129 17:01:27.233252 17373 net.cpp:103] Top shape: 548 2048 1 1 (1122304)
I0129 17:01:27.233309 17373 net.cpp:67] Creating Layer inner2
I0129 17:01:27.233317 17373 net.cpp:394] inner2 <- sig1
I0129 17:01:27.233331 17373 net.cpp:356] inner2 -> inner2
I0129 17:01:27.233345 17373 net.cpp:96] Setting up inner2
I0129 17:01:27.241006 17373 net.cpp:103] Top shape: 548 2048 1 1 (1122304)
I0129 17:01:27.241046 17373 net.cpp:67] Creating Layer sig2
I0129 17:01:27.241053 17373 net.cpp:394] sig2 <- inner2
I0129 17:01:27.241063 17373 net.cpp:356] sig2 -> sig2
I0129 17:01:27.241086 17373 net.cpp:96] Setting up sig2
I0129 17:01:27.241106 17373 net.cpp:103] Top shape: 548 2048 1 1 (1122304)
I0129 17:01:27.241117 17373 net.cpp:67] Creating Layer inner3
I0129 17:01:27.241122 17373 net.cpp:394] inner3 <- sig2
I0129 17:01:27.241127 17373 net.cpp:356] inner3 -> inner3
I0129 17:01:27.241137 17373 net.cpp:96] Setting up inner3
I0129 17:01:27.248749 17373 net.cpp:103] Top shape: 548 2048 1 1 (1122304)
I0129 17:01:27.248787 17373 net.cpp:67] Creating Layer sig3
I0129 17:01:27.248795 17373 net.cpp:394] sig3 <- inner3
I0129 17:01:27.248802 17373 net.cpp:356] sig3 -> sig3
I0129 17:01:27.248811 17373 net.cpp:96] Setting up sig3
I0129 17:01:27.248826 17373 net.cpp:103] Top shape: 548 2048 1 1 (1122304)
I0129 17:01:27.248833 17373 net.cpp:67] Creating Layer inner4
I0129 17:01:27.248838 17373 net.cpp:394] inner4 <- sig3
I0129 17:01:27.248845 17373 net.cpp:356] inner4 -> inner4
I0129 17:01:27.248852 17373 net.cpp:96] Setting up inner4
I0129 17:01:27.256080 17373 net.cpp:103] Top shape: 548 2048 1 1 (1122304)
I0129 17:01:27.256103 17373 net.cpp:67] Creating Layer sig4
I0129 17:01:27.256109 17373 net.cpp:394] sig4 <- inner4
I0129 17:01:27.256119 17373 net.cpp:356] sig4 -> sig4
I0129 17:01:27.256130 17373 net.cpp:96] Setting up sig4
I0129 17:01:27.256145 17373 net.cpp:103] Top shape: 548 2048 1 1 (1122304)
I0129 17:01:27.256156 17373 net.cpp:67] Creating Layer inner5
I0129 17:01:27.256161 17373 net.cpp:394] inner5 <- sig4
I0129 17:01:27.256168 17373 net.cpp:356] inner5 -> inner5
I0129 17:01:27.256176 17373 net.cpp:96] Setting up inner5
I0129 17:01:27.263821 17373 net.cpp:103] Top shape: 548 2048 1 1 (1122304)
I0129 17:01:27.263854 17373 net.cpp:67] Creating Layer sig5
I0129 17:01:27.263861 17373 net.cpp:394] sig5 <- inner5
I0129 17:01:27.263870 17373 net.cpp:356] sig5 -> sig5
I0129 17:01:27.263878 17373 net.cpp:96] Setting up sig5
I0129 17:01:27.263891 17373 net.cpp:103] Top shape: 548 2048 1 1 (1122304)
I0129 17:01:27.263900 17373 net.cpp:67] Creating Layer inner6
I0129 17:01:27.263905 17373 net.cpp:394] inner6 <- sig5
I0129 17:01:27.263911 17373 net.cpp:356] inner6 -> inner6
I0129 17:01:27.263919 17373 net.cpp:96] Setting up inner6
I0129 17:01:27.271526 17373 net.cpp:103] Top shape: 548 2048 1 1 (1122304)
I0129 17:01:27.271553 17373 net.cpp:67] Creating Layer sig6
I0129 17:01:27.271559 17373 net.cpp:394] sig6 <- inner6
I0129 17:01:27.271567 17373 net.cpp:356] sig6 -> sig6
I0129 17:01:27.271575 17373 net.cpp:96] Setting up sig6
I0129 17:01:27.271589 17373 net.cpp:103] Top shape: 548 2048 1 1 (1122304)
I0129 17:01:27.271597 17373 net.cpp:67] Creating Layer final_inner
I0129 17:01:27.271603 17373 net.cpp:394] final_inner <- sig6
I0129 17:01:27.271610 17373 net.cpp:356] final_inner -> out
I0129 17:01:27.271617 17373 net.cpp:96] Setting up final_inner
I0129 17:01:27.278360 17373 net.cpp:103] Top shape: 548 1706 1 1 (934888)
I0129 17:01:27.278381 17373 net.cpp:172] final_inner does not need backward computation.
I0129 17:01:27.278388 17373 net.cpp:172] sig6 does not need backward computation.
I0129 17:01:27.278393 17373 net.cpp:172] inner6 does not need backward computation.
I0129 17:01:27.278396 17373 net.cpp:172] sig5 does not need backward computation.
I0129 17:01:27.278401 17373 net.cpp:172] inner5 does not need backward computation.
…
