…
latgen-faster-mapped --min-active=200 --max-active=7000 --max-mem=50000000 --beam=18.0 --lattice-beam=10.0 --acoustic-scale=0.1 --allow-partial=true --word-symbol-table=exp/tri3b//graph//words.txt exp/djinn_decode/final.mdl exp/tri3b//graph//HCLG.fst ark:- 'ark:|gzip -c > exp/djinn_decode//decode_local/lat.1.gz' 
nnet-forward --djinn=false --hostname=localhost --portno=8080 --feature-transform=exp/djinn_decode/final.feature_transform --class-frame-counts=exp/djinn_decode/ali_train_pdf.counts --gpu=false --common=../../../../../common/ --network=asr.prototxt --weight=asr.caffemodel 'ark,s,cs:copy-feats scp:exp/data-fmllr-tri3b/local/split1/1/feats.scp ark:- |' ark:- 
WARNING: Logging before InitGoogleLogging() is written to STDERR
I0129 17:06:49.336777 21495 net.cpp:39] Initializing net from parameters: 
name: "asr"
layers {
  bottom: "data"
  top: "inner1"
  name: "inner1"
  type: INNER_PRODUCT
  inner_product_param {
    num_output: 2048
  }
}
layers {
  bottom: "inner1"
  top: "sig1"
  name: "sig1"
  type: SIGMOID
}
layers {
  bottom: "sig1"
  top: "inner2"
  name: "inner2"
  type: INNER_PRODUCT
  inner_product_param {
    num_output: 2048
  }
}
layers {
  bottom: "inner2"
  top: "sig2"
  name: "sig2"
  type: SIGMOID
}
layers {
  bottom: "sig2"
  top: "inner3"
  name: "inner3"
  type: INNER_PRODUCT
  inner_product_param {
    num_output: 2048
  }
}
layers {
  bottom: "inner3"
  top: "sig3"
  name: "sig3"
  type: SIGMOID
}
layers {
  bottom: "sig3"
  top: "inner4"
  name: "inner4"
  type: INNER_PRODUCT
  inner_product_param {
    num_output: 2048
  }
}
layers {
  bottom: "inner4"
  top: "sig4"
  name: "sig4"
  type: SIGMOID
}
layers {
  bottom: "sig4"
  top: "inner5"
  name: "inner5"
  type: INNER_PRODUCT
  inner_product_param {
    num_output: 2048
  }
}
layers {
  bottom: "inner5"
  top: "sig5"
  name: "sig5"
  type: SIGMOID
}
layers {
  bottom: "sig5"
  top: "inner6"
  name: "inner6"
  type: INNER_PRODUCT
  inner_product_param {
    num_output: 2048
  }
}
layers {
  bottom: "inner6"
  top: "sig6"
  name: "sig6"
  type: SIGMOID
}
layers {
  bottom: "sig6"
  top: "out"
  name: "final_inner"
  type: INNER_PRODUCT
  inner_product_param {
    num_output: 1706
  }
}
input: "data"
input_dim: 548
input_dim: 440
input_dim: 1
input_dim: 1
I0129 17:06:49.336978 21495 net.cpp:358] Input 0 -> data
I0129 17:06:49.337044 21495 net.cpp:67] Creating Layer inner1
I0129 17:06:49.337054 21495 net.cpp:394] inner1 <- data
I0129 17:06:49.337065 21495 net.cpp:356] inner1 -> inner1
I0129 17:06:49.337086 21495 net.cpp:96] Setting up inner1
I0129 17:06:49.338976 21495 net.cpp:103] Top shape: 548 2048 1 1 (1122304)
I0129 17:06:49.339015 21495 net.cpp:67] Creating Layer sig1
I0129 17:06:49.339022 21495 net.cpp:394] sig1 <- inner1
I0129 17:06:49.339030 21495 net.cpp:356] sig1 -> sig1
I0129 17:06:49.339040 21495 net.cpp:96] Setting up sig1
I0129 17:06:49.394572 21495 net.cpp:103] Top shape: 548 2048 1 1 (1122304)
I0129 17:06:49.394629 21495 net.cpp:67] Creating Layer inner2
I0129 17:06:49.394637 21495 net.cpp:394] inner2 <- sig1
I0129 17:06:49.394650 21495 net.cpp:356] inner2 -> inner2
I0129 17:06:49.394665 21495 net.cpp:96] Setting up inner2
I0129 17:06:49.402276 21495 net.cpp:103] Top shape: 548 2048 1 1 (1122304)
I0129 17:06:49.402315 21495 net.cpp:67] Creating Layer sig2
I0129 17:06:49.402323 21495 net.cpp:394] sig2 <- inner2
I0129 17:06:49.402330 21495 net.cpp:356] sig2 -> sig2
I0129 17:06:49.402354 21495 net.cpp:96] Setting up sig2
I0129 17:06:49.402371 21495 net.cpp:103] Top shape: 548 2048 1 1 (1122304)
I0129 17:06:49.402381 21495 net.cpp:67] Creating Layer inner3
I0129 17:06:49.402387 21495 net.cpp:394] inner3 <- sig2
I0129 17:06:49.402395 21495 net.cpp:356] inner3 -> inner3
I0129 17:06:49.402402 21495 net.cpp:96] Setting up inner3
I0129 17:06:49.409669 21495 net.cpp:103] Top shape: 548 2048 1 1 (1122304)
I0129 17:06:49.409700 21495 net.cpp:67] Creating Layer sig3
I0129 17:06:49.409708 21495 net.cpp:394] sig3 <- inner3
I0129 17:06:49.409714 21495 net.cpp:356] sig3 -> sig3
I0129 17:06:49.409723 21495 net.cpp:96] Setting up sig3
I0129 17:06:49.409732 21495 net.cpp:103] Top shape: 548 2048 1 1 (1122304)
I0129 17:06:49.409740 21495 net.cpp:67] Creating Layer inner4
I0129 17:06:49.409745 21495 net.cpp:394] inner4 <- sig3
I0129 17:06:49.409754 21495 net.cpp:356] inner4 -> inner4
I0129 17:06:49.409760 21495 net.cpp:96] Setting up inner4
I0129 17:06:49.417368 21495 net.cpp:103] Top shape: 548 2048 1 1 (1122304)
I0129 17:06:49.417389 21495 net.cpp:67] Creating Layer sig4
I0129 17:06:49.417395 21495 net.cpp:394] sig4 <- inner4
I0129 17:06:49.417404 21495 net.cpp:356] sig4 -> sig4
I0129 17:06:49.417415 21495 net.cpp:96] Setting up sig4
I0129 17:06:49.417428 21495 net.cpp:103] Top shape: 548 2048 1 1 (1122304)
I0129 17:06:49.417438 21495 net.cpp:67] Creating Layer inner5
I0129 17:06:49.417443 21495 net.cpp:394] inner5 <- sig4
I0129 17:06:49.417450 21495 net.cpp:356] inner5 -> inner5
I0129 17:06:49.417457 21495 net.cpp:96] Setting up inner5
I0129 17:06:49.425074 21495 net.cpp:103] Top shape: 548 2048 1 1 (1122304)
I0129 17:06:49.425101 21495 net.cpp:67] Creating Layer sig5
I0129 17:06:49.425107 21495 net.cpp:394] sig5 <- inner5
I0129 17:06:49.425115 21495 net.cpp:356] sig5 -> sig5
I0129 17:06:49.425123 21495 net.cpp:96] Setting up sig5
I0129 17:06:49.425133 21495 net.cpp:103] Top shape: 548 2048 1 1 (1122304)
I0129 17:06:49.425142 21495 net.cpp:67] Creating Layer inner6
I0129 17:06:49.425146 21495 net.cpp:394] inner6 <- sig5
I0129 17:06:49.425153 21495 net.cpp:356] inner6 -> inner6
I0129 17:06:49.425160 21495 net.cpp:96] Setting up inner6
I0129 17:06:49.432453 21495 net.cpp:103] Top shape: 548 2048 1 1 (1122304)
I0129 17:06:49.432473 21495 net.cpp:67] Creating Layer sig6
I0129 17:06:49.432479 21495 net.cpp:394] sig6 <- inner6
I0129 17:06:49.432487 21495 net.cpp:356] sig6 -> sig6
I0129 17:06:49.432495 21495 net.cpp:96] Setting up sig6
I0129 17:06:49.432504 21495 net.cpp:103] Top shape: 548 2048 1 1 (1122304)
I0129 17:06:49.432512 21495 net.cpp:67] Creating Layer final_inner
I0129 17:06:49.432518 21495 net.cpp:394] final_inner <- sig6
I0129 17:06:49.432525 21495 net.cpp:356] final_inner -> out
I0129 17:06:49.432533 21495 net.cpp:96] Setting up final_inner
I0129 17:06:49.439244 21495 net.cpp:103] Top shape: 548 1706 1 1 (934888)
I0129 17:06:49.439261 21495 net.cpp:172] final_inner does not need backward computation.
I0129 17:06:49.439267 21495 net.cpp:172] sig6 does not need backward computation.
I0129 17:06:49.439271 21495 net.cpp:172] inner6 does not need backward computation.
I0129 17:06:49.439276 21495 net.cpp:172] sig5 does not need backward computation.
I0129 17:06:49.439281 21495 net.cpp:172] inner5 does not need backward computation.
…
